models/test_model.pth (torch_old, 88672 bytes, 8 tensors)

conv1.weight f4 [10, 1, 5, 5]
0.0687298 0.24045861 0.26433027 0.0573918 -0.119207494 -0.0383124 0.1591937 0.0047948714
-0.1256016 -0.08287973 0.16696395 0.39700502 0.09388178 -0.41731095 -0.19188066 0.17555211
0.16571288 -0.05172789 -0.22076896 -0.30573553 0.12171928 0.27398193 0.15238218 -0.29632452
-0.31646422 -0.044903886 0.2536644 0.19129947 0.2695974 0.010215677 -0.22066985 -0.10576735
0.38687035 0.15813062 -0.14776734 -0.35575712 0.17988254 0.41471344 0.16909657 -0.14810425
-0.021610275 0.28412184 0.12914526 0.13389617 -0.07921026 0.06235518 0.05625002 0.24945793
0.14317639 -0.013198169 -0.21771166 -0.015609674 0.14344116 -0.23050795 0.026950018 -0.13103785
0.1829513 0.07155583 0.1918731 -0.015319499 0.13806026 0.29248092 0.15983653 -0.28892875
-0.076986946 0.066510834 0.30876565 -0.19406798 -0.2786986 0.34154284 -0.0537356 0.21630412
0.16822371 0.26697308 0.21269542 0.14714044 0.10083261 -0.14465559 -0.3686108 -0.1768522
0.19286244 0.44755945 0.35514596 0.14539513 -0.066066325 0.062058855 0.29857937 0.582654
0.5155996 0.27773324 -0.42752028 -0.21158147 -0.038216475 0.018592045 0.09759151 -0.3389981
-0.32730788 -0.40389895 -0.2586468 -0.037901163 -0.009393489 0.10345492 0.13558175 0.05234746
0.079490125 0.12038383 0.2505039 0.2953597 0.04615269 0.13076358 0.2841402 0.05977414
-0.09546544 -0.051464 -0.27606416 0.07354661 0.08459012 -0.09696383 -0.024462704 -0.2225928
-0.10266477 0.035635352 -0.080252215 -0.28273857 -0.19446768 -0.3843627 -0.37853295 -0.41616738
-0.2619335 -0.1144175 -0.19318952 -0.28297094 0.08820243 0.09745402 0.18928804 0.20912766
0.33717996 0.47328404 0.3339713 0.08409117 0.39821872 0.24262856 0.10273935 0.1602683
-0.09697866 0.068784855 0.09734757 -0.19370434 -0.26574692 -0.0086197695 0.36522305 0.1407547
0.18995725 -0.18648556 -0.20799483 0.3716989 -0.014343062 -0.21622239 -0.27537376 -0.14601332
0.27141497 -0.17674603 -0.13364494 -0.12350325 -0.21987095 -0.2007803 -0.1874491 -0.296462
-0.29789627 0.16808647 -0.29525077 -0.14392272 -0.2744068 0.08331419 -0.043715745 -0.13540432
-0.16000639 -0.26265475 -0.20474574 -0.11773855 -0.20762843 0.05655202 0.1837259 0.28693187
0.29540503 -0.016813094 0.17938094 0.30245084 0.2919615 -0.10015092 0.25142598 0.24147336
-0.09936857 -0.21834576 -0.12270233 0.23890561 -0.23380594 -0.16699333 -0.026275286 -0.17486407
0.17914702 -0.08707843 -0.37417954 -0.16767643 -0.05242438 0.39758936 -0.18187107 -0.30953214
-0.25732806 0.15252922 0.5291312 -0.072708815 -0.36250266 -0.23215675 -0.12336546 0.45488384
0.19707553 0.06817422 -0.19435787 -0.04164941 0.11680391 0.40901545 0.12040688 0.063765764
-0.0101203825 -0.14527744 0.033563856 -0.21050018 -0.16914022 -0.18701589 -0.073704325 0.017123124
0.13318151 -0.06941317 0.1711765 -0.06271237 0.063281216 0.06149242 -0.16542178 0.018705275
0.06931965 0.1423654 -0.11076571 0.09183354 -0.14137068 -0.20086524 -0.20362715 -0.12966093
-0.074266694 -0.17237793
00000000: 36c2 8c3d c83a 763e 4c56 873e aa13 6b3d
00000010: 0f23 f4bd 77ed 1cbd ac03 233e 4c1e 9d3b
00000020: b59d 00be d9bc a9bd 99f8 2a3e 3e44 cb3e
00000030: 1745 c03d c8a9 d5be 5d7c 44be efc3 333e
00000040: a3b0 293e a0e0 53bd 4211 62be 5e89 9cbe
00000050: f547 f93d 5c47 8c3e 130a 1c3e d9b7 97be
00000060: 9907 a2be 23ed 37bd 4de0 813e 02e4 433e
00000070: ac08 8a3e a85f 273c 47f7 61be 8d9c d8bd
00000080: df13 c63e feec 213e 5250 17be cc25 b6be
00000090: 2133 383e 5255 d43e a727 2d3e a4a8 17be
000000a0: 0808 b1bc 6b78 913e a83e 043e 141c 093e
000000b0: fd38 a2bd 2568 7f3d 6c66 663d e671 7f3e
000000c0: d59c 123e 223d 58bc ceef 5ebe b8bf 7fbc
000000d0: 3de2 123e 470a 6cbe 49c6 dc3c c92e 06be
000000e0: 9657 3b3e dd8b 923d 627a 443e a3fe 7abc
000000f0: ab5f 0d3e 0fc0 953e 30ac 233e 78ee 93be
00000100: 55ab 9dbd d536 883d 8816 9e3e c2b9 46be
00000110: 95b1 8ebe b4de ae3e dc19 5cbd d47e 5d3e
00000120: d642 2c3e b2b0 883e d4cc 593e fcab 163e
00000130: 5481 ce3d 9820 14be 8eba bcbe be18 35be
00000140: bb7d 453e 8326 e53e b1d5 b53e 76e2 143e
00000150: c84d 87bd 6d31 7e3d 65df 983e d028 153f
00000160: 56fe 033f 0d33 8e3e f0e3 dabe d0a8 58be
00000170: e188 1cbd 584e 983c 0fde c73d 2991 adbe
00000180: e694 a7be d8cb cebe 5a6d 84be 403e 1bbd
00000190: 26e7 19bc 2ce0 d33d f1d5 0a3e 4a6a 563d
000001a0: b8cb a23d cc8b f63d 0c42 803e 6339 973e
000001b0: 9a0a 3d3d e3e6 053e d37a 913e bbd5 743d
000001c0: 6283 c3bd eacb 52bd 4858 8dbe 9b9f 963d
000001d0: 963d ad3d f994 c6bd 0266 c8bc 5eef 63be
000001e0: e841 d2bd 60f6 113d 465b a4bd 1cc3 90be
000001f0: 8922 47be 30cb c4be 12cf c1be e413 d5be
00000200: 261c 86be b953 eabd 79d3 45be 91e1 90be
00000210: 7aa3 b43d f995 c73d b9d4 413e 9025 563e
00000220: daa2 ac3e 4952 f23e 49fe aa3e fe37 ac3d
00000230: 53e3 cb3e 9f73 783e 0269 d23d 601d 243e
00000240: bf9c c6bd 13df 8c3d 2a5e c73d 6e5a 46be
00000250: fb0f 88be ef39 0dbc 84fe ba3e 0022 103e
00000260: 2784 423e 12f6 3ebe 99fc 54be 514f be3e
00000270: 2aff 6abc 6769 5dbe cafd 8cbe 8484 15be
00000280: e7f6 8a3e e9fc 34be 38da 08be 46ef fcbd
00000290: da25 61be 5a99 4dbe a8f2 3fbe dec9 97be
000002a0: dc85 98be dc1e 2c3e 1c2b 97be 7a60 13be
000002b0: 0c7f 8cbe a1a0 aa3d 480f 33bd 6ea7 0abe
000002c0: b7d8 23be af7a 86be dea8 51be e920 f1bd
000002d0: 8c9c 54be 17a3 673d a422 3c3e bce8 923e
000002e0: 543f 973e 9dbb 89bc a3af 373e d6da 9a3e
000002f0: fa7b 953e ed1b cdbd e8ba 803e cb44 773e
00000300: c081 cbbd 0896 5fbe 5c4b fbbd aca3 743e
00000310: d36a 6fbe 4d00 2bbe 453f d7bc 910f 33be
00000320: 5172 373e 2d56 b2bd 7694 bfbe 5fb3 2bbe
00000330: f2ba 56bd d590 cb3e 693c 3abe ff7a 9ebe
00000340: 81c0 83be 9f30 1c3e 2475 073f 5ce8 94bd
00000350: f399 b9be 80ba 6dbe 08a7 fcbd 89e6 e83e
00000360: 2bce 493e ed9e 8b3d c005 47be 9298 2abd
00000370: e336 ef3d 796a d13e e297 f63d a097 823d
00000380: f6cf 25bc 9cc3 14be 417a 093d 5c8d 57be
00000390: 1833 2dbe 1881 3fbe 4bf2 96bd cb45 8c3c
000003a0: bc60 083e 7e28 8ebd e448 2f3e 586f 80bd
000003b0: 9599 813d 7adf 7b3d 5464 29be ce3b 993c
000003c0: 76f7 8d3d 3cc8 113e 22d9 e2bd 3913 bc3d
000003d0: 7ac3 10be 9eaf 4dbe a383 50be d6c5 04be
000003e0: 2319 98bd d783 30be

conv1.bias f4 [10]
-0.04960289 0.033425678 0.35197386 0.15208904 0.13563447 -0.06722877 -0.07748214 -0.07588128
-0.1915292 -0.07619523
00000000: 662c 4bbd 5de9 083d eb35 b43e 3bbd 1b3e
00000010: c3e3 0a3e 3daf 89bd f5ae 9ebd a567 9bbd
00000020: 3b20 44be 3f0c 9cbd

conv2.weight f4 [20, 10, 5, 5]
-0.015217141 0.056880284 0.094509736 0.049210973 -0.01694998 -0.025353463 0.0045377747 0.046550207
-0.06824195 -0.036161467 -0.031267907 0.02616995 -0.05041457 -0.055181824 -0.07216923 0.04135009
-0.06876853 -0.042492896 0.03616087 0.052844264 -0.040364504 -0.045753248 0.0059878402 0.0692532
0.006383703 -0.09618892 0.027816657 0.16204299 0.05845878 -0.12905267 -0.11372965 0.09699638
0.049890045 -0.054245453 -0.04523504 -0.011779228 -0.03296197 -0.085465886 -0.12843402 -0.03383183
-0.021806624 -0.08535947 -0.07578098 -0.09349214 0.042006567 -0.07203973 0.012332328 -0.027237086
0.007410359 -0.012431199 0.046288207 -0.048959937 0.022225857 0.031181918 -0.013203104 -0.0873172
0.04092329 0.04749425 -0.04593791 -0.08643631 -0.053456783 -0.062353317 -0.03351425 -0.085090674
-0.07475855 0.042577993 0.001593627 -0.0026882621 -0.022478506 -0.015202365 -0.00045673017 -0.040510938
0.0102898665 0.02356961 -0.039063826 -0.00013958462 0.0024725888 0.06698038 0.065613575 0.038699575
0.019033672 0.04392304 0.04057573 0.0321269 -0.06767275 0.005408783 -0.046179283 -0.088390015
-0.084942214 -0.02730356 -0.025944326 0.022416735 -0.032103542 0.00021137511 0.035088673 0.03165468
-0.05244886 0.0087961545 -0.017219057 -0.045009647 -0.036663566 0.025445638 0.11929532 0.12778029
0.027787426 0.014204748 0.08327786 0.08248646 0.0062066843 -0.020038106 0.021820871 -0.01564401
-0.045438997 -0.051702462 -0.032080702 0.02677857 -0.04904001 -0.024669202 -0.07400518 -0.06580919
-0.015837898 -0.009320197 -0.012284124 0.044923693 -0.049854223 -0.016071327 0.08871517 0.035908334
0.09825347 -0.000209655 0.054239705 0.09459889 0.098671265 -0.060116958 -0.012788995 0.0799784
0.007854406 0.009568343 -0.011542983 -0.014319679 -0.009272363 -0.07155746 0.0062674475 -0.019562088
-0.07711973 -0.0673839 -0.06365775 0.01845114 -0.042629004 -0.07442506 -0.0055086017 -0.059318077
-0.022964027 0.016899318 0.054832317 -0.036288165 0.009755128 0.04175569 0.12139913 0.11322138
-0.012960704 0.058582984 0.11082128 0.08398234 0.016189417 -0.047347784 -0.03446183 0.02973745
-0.003399099 -0.08169267 -0.066117905 -0.06549607 -0.046791114 -0.054924306 -0.024083944 -0.060133394
-0.023366839 0.052168336 0.09945298 -0.019162346 0.05669172 0.075926 0.014408662 -0.0292966
-0.05329239 0.027149687 -0.049464088 -0.018342506 -0.09059437 -0.0013044865 0.036590014 -0.059681702
0.026885036 -0.050167143 -0.002250846 -0.01909313 0.01577527 -0.10176101 0.0059275753 -0.06677508
0.00964406 -0.0150860455 -0.021267304 0.035890587 0.030693687 -0.01855427 0.017723544 0.013362008
-0.01947133 0.06614601 -0.040308323 0.08523236 0.048456255 -0.04439848 -0.07895158 -0.055992447
0.050718665 -0.03856789 -0.043993726 -0.06939149 0.02465153 0.08792981 0.073338374 0.081326894
0.100602925 -0.04465749 -0.04024061 -0.04276644 0.027550884 0.07931261 -0.020217204 0.033724416
-0.04711619 0.026880331 -0.024270674 -0.024520319 0.06264084 0.013175009 0.06880994 0.0306141
0.019679317 0.026051674 0.045396283 0.022211134 0.015932897 0.018187994 0.044218857 -0.013499993
0.056188785 0.019110018 -0.0069739283 -0.02060516 -0.116633795 0.030500354 0.04777564 -0.013149565
00000000: 5151 79bc 4dfb 683d 528e c13d 7291 493d
00000010: afda 8abc 11b2 cfbc 9db1 943b 6eab 3e3d
00000020: 6fc2 8bbd 0c1e 14bd c712 00bd 5d62 d63c
00000030: 827f 4ebd 5606 62bd 76cd 93bd b65e 293d
00000040: 84d6 8cbd 080d 2ebd 6c1d 143d 3a73 583d
00000050: 4055 25bd c267 3bbd a535 c43b 9fd4 8d3d
00000060: 622e d13b b2fe c4bd c2df e33c 99ee 253e
00000070: 7972 6f3d 6226 04be 17eb e8bd 0aa6 c63d
00000080: 8159 4c3d 7b30 5ebd 6148 39bd aafd 40bc
00000090: 2103 07bd bd08 afbd 3584 03be 3f93 0abd
000000a0: cea3 b2bc f2d0 aebd 0f33 9bbd cf78 bfbd
000000b0: 140f 2c3d 9189 93bd 880d 4a3c 4f20 dfbc
000000c0: 99d2 f23b 3aac 4bbc b498 3d3d 378a 48bd
000000d0: 0013 b63c 3971 ff3c d551 58bc 5cd3 b2bd
000000e0: 2e9f 273d 5589 423d 6429 3cbd 8505 b1bd
000000f0: 80f5 5abd 3166 7fbd 3d46 09bd 0544 aebd
00000100: 031b 99bd 4366 2e3d 40e1 d03a 8e2d 30bb
00000110: d824 b8bc 5713 79bc 4975 efb9 ccee 25bd
00000120: d496 283c 0e15 c13c 6401 20bd 765d 12b9
00000130: 280b 223b 022d 893d 6960 863d 7283 1e3d
00000140: 81ec 9b3c a5e8 333d bd32 263d 7f97 033d
00000150: 0398 8abd 293c b13b 7d26 3dbd d305 b5bd
00000160: 2ff6 adbd b7ab dfbc 3289 d4bc 4da3 b73c
00000170: 017f 03bd 93a4 5d39 24b9 0f3d 56a8 013d
00000180: 9ed4 56bd bf1d 103c fb0e 8dbc 095c 38bd
00000190: 892c 16bd 5f73 d03c 1b51 f43d d6d8 023e
000001a0: 75a2 e33c 08bb 683c 958d aa3d a9ee a83d
000001b0: 7161 cb3b f426 a4bc afc1 b23c de27 80bc
000001c0: 3e1e 3abd f6c5 53bd 0e67 03bd bb5e db3c
000001d0: 2dde 48bd 1117 cabc 0790 97bd f8c6 86bd
000001e0: 7bbe 81bc bdb3 18bc 5a43 49bc e801 383d
000001f0: f133 4cbd 04a8 83bc 4db0 b53d 9e14 133d
00000200: 1e39 c93d d6d6 5bb9 742a 5e3d 10bd c13d
00000210: 2914 ca3d 333d 76bd ef88 51bc b7cb a33d
00000220: c4af 003c 8ac4 1c3c c81e 3dbc 169d 6abc
00000230: 1ceb 17bc b88c 92bd 295f cd3b ac40 a0bc
00000240: f3f0 9dbd 9200 8abd ff5e 82bd d826 973c
00000250: c09b 2ebd 2a6c 98bd 8081 b4bb 83f7 72bd
00000260: 0e1f bcbc 7070 8a3c da97 603d e6a2 14bd
00000270: f9d3 1f3c 0408 2b3d 1ba0 f83d 9ce0 e73d
00000280: 2259 54bc b6f4 6f3d 44f6 e23d effe ab3d
00000290: ab9f 843c c0ef 41bd d927 0dbd f49b f33c
000002a0: 6bc3 5ebb 7d4e a7bd d368 87bd ce22 86bd
000002b0: 0aa8 3fbd 4ff8 60bd b14b c5bc 6f4e 76bd
000002c0: d06b bfbc 77ae 553d 01ae cb3d 5afa 9cbc
000002d0: 9435 683d 177f 9b3d 4f12 6c3c 6cff efbc
000002e0: 1f49 5abd 0569 de3c db9a 4abd 0643 96bc
000002f0: 8b89 b9bd 4efb aaba 69df 153d cd74 74bd
00000300: 023e dc3c 107c 4dbd ee82 13bb 3269 9cbc
00000310: 243b 813c 1468 d0bd 1b3c c23b 60c1 88bd
00000320: 1f02 1e3c 762b 77bc c538 aebc 0202 133d
00000330: 5471 fb3c 20ff 97bc f730 913c 53ec 5a3c
00000340: 5782 9fbc 8f77 873d 571a 25bd 4e8e ae3d
00000350: 117a 463d 2edb 35bd 5eb1 a1bd 5658 65bd
00000360: 60be 4f3d 5df9 1dbd c432 34bd 201d 8ebd
00000370: 01f2 c93c 8b14 b43d 6e32 963d b78e a63d
00000380: e808 ce3d c6ea 36bd 56d3 24bd dd2b 2fbd
00000390: 64b2 e13c a66e a23d 8d9e a5bc 9d22 0a3d
000003a0: e8fc 40bd 2434 dc3c 4bd3 c6bc d6de c8bc
000003b0: d749 803d fedb 573c 3aec 8c3d 6cca fa3c
000003c0: 8536 a13c 526a d53c 74f1 393d 20f4 b53c
000003d0: b585 823c fdfe 943c d51e 353d 132f 5dbc
000003e0: 3626 663d 9d8c 9c3c 8d85 e4bb 27cc a8bc
000003f0: b3dd eebd e1db f93c 64b0 433d 4671 57bc

conv2.bias f4 [20]
-0.047592722 0.029984344 0.006735686 0.048736766 0.05528061 -0.014426762 -0.03467139 0.040690415
-0.031864267 0.0651301 0.009467741 0.018571192 0.02761312 0.041166183 0.06101973 0.10661501
-0.024707396 -0.053556494 -0.060538724 0.006353806
00000000: 96f0 42bd baa1 f53c 08b7 dc3b 34a0 473d
00000010: ec6d 623d 3a5e 6cbc 9603 0ebd feaa 263d
00000020: 1b84 02bd ee62 853d 951e 1b3c 9d22 983c
00000030: e934 e23c df9d 283d d3ef 793d f858 da3d
00000040: 2a67 cabc 0e5e 5bbd 74f7 77bd 9633 d03b

fc1.weight f4 [50, 320]
-0.033292793 -0.019435573 -0.004114608 0.034011047 -0.039706424 -0.065772764 0.014326594 -0.05477565
-0.014338104 -0.043541163 -0.012826522 0.06113722 0.03354478 -0.06360921 -0.0058837207 0.017573927
0.060564928 0.010160614 -0.026487634 0.03307015 -0.031801313 -0.0026598733 -0.025164848 0.013283492
0.041168835 0.08347018 -0.028663246 -0.007906457 0.060979888 0.08273908 -0.01822234 -0.023895616
0.022946907 -0.059683625 -0.018006144 0.0016104581 -0.028098123 0.031192528 0.03867719 0.022827288
0.0116671575 0.0015579837 0.057365634 -0.08864269 0.00022703748 -0.021988213 0.029612234 -0.004238542
0.03771293 -0.07759269 -0.037713293 -0.018020973 0.022346916 -0.05284118 -0.0127339745 0.044590607
0.061386757 -0.017794576 -0.010987262 -0.033741068 0.050236046 -0.045246646 -0.046610553 -0.021869471
-0.06592911 0.019696737 -0.016258867 0.014738374 -0.02874046 -0.034590945 -0.022437772 0.0076679555
-0.0013810935 -0.029342903 0.02056869 0.03209505 -0.0009141716 0.006955464 0.0061599137 -0.038180433
-0.06040688 -0.020544235 -0.062221657 -0.06410061 0.05488343 0.003224744 -0.050588306 0.015909238
-0.024796361 0.07882551 0.056701735 -0.03246012 -0.027505523 0.060417745 -0.0045204703 -0.053501356
-0.016764827 0.017840361 -0.017256636 0.0007004153 0.0015795884 0.008609802 0.037803445 0.07172168
-0.039199386 0.014170375 -0.02291511 -0.07518757 -0.009163741 -0.07876275 0.011832215 -0.01691637
0.030754713 0.06082079 0.016180273 0.040962473 0.018959526 -0.040511854 0.04139668 -0.061110973
-0.002240989 -0.025249006 -0.016874852 -0.013339583 0.03608931 0.06198757 0.052693926 -0.031325545
0.042159703 0.05782625 -0.052315697 0.030464053 -0.0081989085 0.014555616 -0.061982475 -0.024874281
0.0061797877 -0.07201512 -0.036624063 0.013079927 0.011278925 -0.03610889 -0.003432626 -0.06408713
-0.020196931 0.0066742664 0.006038566 -0.015093106 0.07548107 0.08772826 -0.05357241 -0.029011838
0.012296806 -0.024499286 -0.060704425 -0.03973119 -0.0031109843 0.004526809 -0.026248842 -0.0018047938
-0.0011068 -0.050168186 -8.114116e-06 0.0006980999 0.022333125 0.037369285 -0.05916029 -0.0255537
0.05529891 0.04774672 -0.05510853 -0.016561072 -0.02141556 0.012345142 -0.05531466 -0.07594436
-0.034793917 0.04216126 0.022948459 0.0028876178 -0.06770984 -0.037889473 0.054447327 0.03842631
0.016233336 0.0076275743 0.025660295 -0.06857744 0.030556066 -0.047769453 -0.110341646 -0.08955066
-0.042864464 -0.0433727 0.029539969 0.019537006 -0.002016346 0.043985665 0.038905874 -0.043912914
-0.08009927 -0.018780585 0.013782529 0.050955113 0.031133339 -0.046246603 0.0760714 -0.028524576
-0.04925671 7.245629e-05 0.06181656 -0.015876388 0.05597251 -0.02193474 -0.022218352 -0.03915575
-0.0037926373 -0.0050787674 -0.009869435 -0.0028543577 -0.026893567 0.016534476 -0.04318078 0.012406488
-0.09434169 -0.05812662 0.021055568 0.037409816 -0.07845321 -0.016387727 0.115063965 -0.014015706
-0.033963695 -0.04840164 -0.06024842 -0.03322382 -0.034333333 -0.115416445 -0.011013112 0.07028164
0.026373966 -0.0826553 -0.08268929 0.0021495898 -0.030209377 -0.06552268 -0.032800037 -0.007962994
-0.05187058 -0.079864934 0.095169306 0.11062146 -0.04516941 0.021510217 -0.007602433 0.05589894
00000000: 065e 08bd 5a37 9fbc d5d3 86bb 2b4f 0b3d
00000010: 34a3 22bd dfb3 86bd 17ba 6a3c 6f5c 60bd
00000020: 5eea 6abc 3858 32bd 5526 52bc 066b 7a3d
00000030: 4066 093d 8c45 82bd 3acc c0bb 32f7 8f3c
00000040: ee12 783d b478 263c 98fc d8bc 9174 073d
00000050: 1842 02bd 4551 2ebb 8326 cebc 01a3 593c
00000060: a7a0 283d 6af2 aa3d 2fcf eabc 168a 01bc
00000070: 0cc6 793d 1b73 a93d 0447 95bc bdc0 c3bc
00000080: 27fb bb3c d176 74bd 9f81 93bc 0216 d33a
00000090: 092e e6bc 7987 ff3c f96b 1e3d 4b00 bb3c
000000a0: 9b27 3f3c 4235 cc3a 3af8 6a3d 4c8a b5bd
000000b0: e910 6e39 a020 b4bc 5b95 f23c 78e3 8abb
000000c0: e078 1a3d ebe8 9ebd 4179 1abd b8a0 93bc
000000d0: e110 b73c fe6f 58bd 29a2 50bc a4a4 363d
000000e0: ae70 7b3d eec5 91bc eb03 34bc 1334 0abd
000000f0: 50c4 4d3d 8c54 39bd b5ea 3ebd 9b27 b3bc
00000100: d705 87bd 0d5b a13c 5131 85bc 3979 713c
00000110: 1d71 ebbc 3caf 0dbd 6bcf b7bc 7943 fb3b
00000120: cf05 b5ba 8760 f0bc ab7f a83c 1976 033d
00000130: 04a5 6fba a9ea e33b 1ad9 c93b 1663 1cbd
00000140: 346d 77bd 624c a8bc 23dc 7ebd 2e47 83bd
00000150: 73cd 603d 3a56 533b af35 4fbd 1754 823c
00000160: bd21 cbbc 456f a13d 1440 683d e7f4 04bd
00000170: 4353 e1bc 9978 773d 7420 94bb 3d24 5bbd
00000180: 6456 89bc f325 923c ca5d 8dbc 139c 373a
00000190: 310a cf3a 2110 0d3c c9d7 1a3d d1e2 923d
000001a0: 898f 20bd dc2a 683c 78b8 bbbc f1fb 99bd
000001b0: 8423 16bc 5d4e a1bd e8db 413c 3394 8abc
000001c0: 4ff1 fb3c 381f 793d 7e8c 843c 44c8 273d
000001d0: 0251 9b3c c2ef 25bd 918f 293d 804f 7abd
000001e0: 8edd 12bb 01d7 cebc 213d 8abc 448e 5abc
000001f0: 62d2 133d aee6 7d3d 96d5 573d 374f 00bd
00000200: a7af 2c3d 38db 6c3d fc48 56bd c08f f93c
00000210: b754 06bc ae7a 6e3c 56e1 7dbd 26c5 cbbc
00000220: d17f ca3b aa7c 93bd 1d03 16bd 314d 563c
00000230: 3ecb 383c eae6 13bd e8f5 60bb 1d40 83bd
00000240: 0974 a5bc ceb3 da3b 2adf c53b 1349 77bc
00000250: d295 9a3d e0aa b33d be6e 5bbd 3caa edbc
00000260: 8b78 493c bab2 c8bc 34a5 78bd 2cbd 22bd
00000270: a8e1 4bbb a055 943b d007 d7bc d58e ecba
00000280: 0c12 91ba 287d 4dbd dd21 08b7 b100 373a
00000290: f5f3 b63c 8910 193d 0f52 72bd fe55 d1bc
000002a0: 1c81 623d 1192 433d 7bb9 61bd 16ab 87bc
000002b0: af6f afbc 4743 4a3c a091 62bd b788 9bbd
000002c0: 1184 0ebd 49b1 2c3d 68fe bb3c 303e 3d3b
000002d0: 75ab 8abd fe31 1bbd 2904 5f3d e864 1d3d
000002e0: c6fb 843c bbf0 f93b 8a35 d23c 5472 8cbd
000002f0: b750 fa3c e7a9 43bd cdfa e1bd 5666 b7bd
00000300: a692 2fbd 93a7 31bd cefd f13c 120c a03c
00000310: ac24 04bb 502a 343d c45b 1f3d 07de 33bd
00000320: 160b a4bd bed9 99bc 1ed0 613c 4fb6 503d
00000330: 580b ff3c 146d 3dbd 52cb 9b3d 5fac e9bc
00000340: 67c1 49bd adf3 9738 5c33 7d3d 330f 82bc
00000350: 6e43 653d 7cb0 b3bc 4303 b6bc c861 20bd
00000360: e58d 78bb ca6b a6bb 69b3 21bc 2d10 3bbb
00000370: e64f dcbc 4f73 873c 54de 30bd 9544 4b3c
00000380: 3736 c1bd 2e16 6ebd ba7c ac3c 093b 193d
00000390: 14ac a0bd 8e3f 86bc a8a6 eb3d 22a2 65bc
000003a0: 841d 0bbd cc40 46bd 0cc7 76bd b315 08bd
000003b0: 1ca1 0cbd 755f ecbd 5770 34bc d2ef 8f3d
000003c0: 370e d83c 2f47 a9bd 0159 a9bd 22e0 0c3b
000003d0: a879 f7bc c130 86bd 5559 06bd 3877 02bc
000003e0: 3f76 54bd 3a90 a3bd 20e8 c23d 818d e23d
000003f0: 8f03 39bd 3236 b03c d51d f9bb 49f6 643d

fc1.bias f4 [50]
0.086658694 0.014075486 -0.045697886 -0.055551313 0.059154853 0.00013502495 0.0008111209 0.016625818
-0.035581607 0.06302228 -0.034342345 0.001928707 0.04880506 0.07896766 0.009049445 -0.021852478
0.06460637 0.01913006 -0.026060853 0.026756672 0.011411866 0.04437171 0.052404262 0.008418782
-0.04992972 -0.060048465 0.027381856 0.02686171 0.011968691 -0.043535188 0.05506211 0.02873754
0.013406839 0.0205049 0.03150078 -0.0046320297 0.06766979 0.030871755 -0.012094627 0.07769404
0.1463779 -0.07996647 0.04566161 -0.025268994 0.049261928 0.0019000748 -0.0025960307 0.09619808
-0.10815926 0.048891377
00000000: 1d7a b13d de9c 663c b52d 3bbd c689 63bd
00000010: 5c4c 723d 7c95 0d39 67a1 543a de32 883c
00000020: 05be 11bd d311 813d 8faa 0cbd abcc fc3a
00000030: d1e7 473d ccb9 a13d 2044 143c f803 b3bc
00000040: 5850 843d a5b6 9c3c 927d d5bc cf30 db3c
00000050: d6f8 3a3c 1cbf 353d daa5 563d eeee 093c
00000060: 1b83 4cbd 61f5 75bd ea4f e03c 170d dc3c
00000070: 5418 443c f451 32bd cf88 613d fd6a eb3c
00000080: 5ca8 5b3c e4f9 a73c f606 013d 48c8 97bb
00000090: 7596 8a3d c3e6 fc3c 8b28 46bc 0e1e 9f3d
000000a0: 17e4 153e 76c5 a3bd ab07 3b3d ec00 cfbc
000000b0: e0c6 493d ee0b f93a 2b22 2abb 8003 c53d
000000c0: 9a82 ddbd 5342 483d

fc2.weight f4 [10, 50]
-0.12454315 0.10272232 -0.1195103 0.22475049 0.17742202 0.11764054 0.08538208 0.25302827
-0.016936395 -0.1542201 -0.1529396 0.15909913 -0.044461135 0.26921132 -0.017028525 -0.24350905
0.22584021 0.1357991 -0.18296851 -0.09164857 -0.15260614 0.0012811103 0.07792874 0.0914039
0.12090915 0.09308114 -0.22595665 -0.18460177 -0.006751083 -0.21600783 -0.32439 0.21590757
-0.07136813 -0.18387279 0.39336383 -0.13067096 0.10877242 -0.11359441 -0.048077043 -0.10302019
-0.25911248 0.06965282 -0.2555991 0.17275771 -0.08502302 0.01897458 -0.21445076 0.21624443
0.12543066 -0.16113801 0.15044145 -0.1348166 0.063433364 -0.009443703 -0.28449532 -0.040265616
0.084994994 0.37239048 -0.073473945 0.030607454 -0.091596976 0.33683386 0.10386519 0.25473717
0.065645106 0.042925913 0.1978591 -0.020400776 -0.0353308 -0.17250304 0.28304213 -0.08041347
0.12154031 0.1404168 -0.10651268 -0.02916909 0.032795776 0.04272842 0.077983424 -0.1739188
0.35494417 0.19081707 0.17664039 -0.19746874 -0.3803633 0.08884464 0.29352665 0.25390926
0.11948958 -0.060067665 0.17980029 -0.1503909 -0.098878875 -0.12980191 -0.18460679 -0.20738432
0.17025124 0.124251075 -0.282263 -0.01343974 -0.0832887 0.24298672 -0.060995195 -0.06360851
-0.045975782 -0.048915617 -0.14013508 -0.06866339 -0.08408227 0.15571068 -0.11634027 -0.2243338
-0.030449139 0.27399567 0.29861945 -0.1249656 0.23234998 0.20547624 -0.052052416 0.1548697
0.03701551 0.082080364 0.26157954 0.15137619 -0.010157141 0.275075 0.21855977 -0.30756104
-0.064614564 0.0154575845 0.029242309 0.21007673 -0.07629416 0.084153764 -0.20890647 -0.12578997
0.14006762 -0.04092499 -0.18733259 -0.23865905 -0.18200119 0.13341409 -0.28957698 -0.12731276
0.04790316 -0.16497326 0.28664345 -0.3736361 0.23776151 -0.28964776 -0.06525267 -0.05189818
0.09315838 0.11143161 -0.23002468 -0.113112845 0.0066795433 -0.20181623 -0.021031063 -0.2862944
0.0625983 -0.10211501 -0.12357744 -0.12131254 -0.07783492 0.063176885 -0.13185704 0.02457672
0.23087923 -0.0048745917 -0.10334817 -0.2212319 -0.13774703 0.20041667 0.17338131 0.048029587
0.2927568 0.20979315 -0.06015811 0.12248437 0.036351785 -0.06571888 -0.2767132 -0.120554455
-0.13749892 0.03929406 -0.40918565 -0.27259186 -0.13701801 -0.21715234 0.2608195 0.17710079
0.24635054 0.016067704 -0.20695904 0.17158258 0.19280154 0.26268297 0.06695353 -0.2420078
0.18392405 0.18603632 -0.019624453 0.15019964 0.43726543 -0.22554947 0.06616536 -0.19537999
-0.12129464 0.11264891 -0.19840823 -0.16644657 0.2583057 -0.11414171 0.040954452 0.12690236
-0.028634554 0.16798578 0.2722907 0.12402348 0.23675252 0.0683839 0.06901341 -0.12023885
-0.06956821 -0.20976767 -0.22253312 0.07866386 -0.18394189 0.30081543 -0.14552592 -0.29113278
0.08192505 0.077152595 -0.2483221 -0.06725971 0.28364113 0.25312635 0.13597079 0.13529597
-0.224714 -0.29969588 0.1988896 -0.15190364 0.09362704 -0.34585255 -0.20170619 -0.35641176
-0.21204232 0.25076857 -0.21520379 -0.32248476 -0.033374246 -0.15392502 -0.04661008 0.13094294
00000000: 7b10 ffbd 1460 d23d d1c1 f4bd fe24 663e
00000010: 1eae 353e 86ed f03d cddc ae3d ec8c 813e
00000020: 32be 8abc e0eb 1dbe 339c 1cbe e2ea 223e
00000030: e11c 36bd 11d6 893e 687f 8bbc 705a 79be
00000040: a842 673e eb0e 0b3e 195c 3bbe 3fb2 bbbd
00000050: c944 1cbe eeea a73a 1a99 9f3d f831 bb3d
00000060: 379f f73d 53a1 be3d 2e61 67be 3f08 3dbe
00000070: 3038 ddbb 2831 5dbe 7216 a6be e016 5d3e
00000080: 7429 92bd 2649 3cbe fc66 c93e 9cce 05be
00000090: 13c4 de3d 30a4 e8bd 6fec 44bd 40fc d2bd
000000a0: 64aa 84be 23a6 8e3d e3dd 82be 66e7 303e
000000b0: 8d20 aebd 9470 9b3c fb98 5bbe 2e6f 5d3e
000000c0: e570 003e 5d01 25be 530d 1a3e 5d0d 0abe
000000d0: 5ae9 813d c3b9 1abc 5fa9 91be 8fed 24bd
000000e0: db11 ae3d f7a9 be3e 8279 96bd 7cbc fa3c
000000f0: 3297 bbbd 7d75 ac3e 46b7 d43d e96c 823e
00000100: f170 863d 15d3 2f3d 939b 4a3e 871f a7bc
00000110: 07b7 10bd a3a4 30be e6ea 903e d1af a4bd
00000120: 20ea f83d 6cc9 0f3e 5223 dabd 04f4 eebc
00000130: dd54 063d ff03 2f3d c6b5 9f3d c517 32be
00000140: 3ebb b53e 8d65 433e 38e1 343e 3f35 4abe
00000150: fabe c2be 2ef4 b53d 2049 963e 6500 823e
00000160: f4b6 f43d 8309 76bd 911d 383e 1200 1abe
00000170: 0281 cabd cbea 04be 9009 3dbe 8e5c 54be
00000180: 5756 2e3e 5977 fe3d c784 90be 5b32 5cbc
00000190: 4493 aabd 83d1 783e 19d6 79bd 2e45 82bd
000001a0: 1a51 3cbd be5b 48bd 927f 0fbe 649f 8cbd
000001b0: 5333 acbd 9f72 1f3e cf43 eebd c2b7 65be
000001c0: 7970 f9bc 2949 8c3e a6e4 983e f7ed ffbd
000001d0: 27ed 6d3e 5d68 523e ea34 55bd 2a96 1e3e
000001e0: 939d 173d c019 a83d c1ed 853e 5c02 1b3e
000001f0: 236a 26bc a1d6 8c3e 22ce 5f3e a478 9dbe
00000200: a454 84bd cf41 7d3c 918d ef3c 5b1e 573e
00000210: 1d40 9cbd cf58 ac3d 94eb 55be 16cf 00be
00000220: e36d 0f3e f6a0 27bd 1dd4 3fbe 0a63 74be
00000230: 855e 3abe b49d 083e 6f43 94be 475e 02be
00000240: 1b36 443d c0ee 28be eec2 923e 3b4d bfbe
00000250: c177 733e b64c 94be 31a3 85bd 3093 54bd
00000260: d2c9 be3d 4236 e43d 978b 6bbe b5a7 e7bd
00000270: 12e0 da3b eaa8 4ebe 5649 acbc 2e95 92be
00000280: 8a33 803d ad21 d1bd 2b16 fdbd b572 f8bd
00000290: ea67 9fbd e262 813d 8805 07be 1e55 c93c
000002a0: 9b6b 6c3e 0abb 9fbb 35a8 d3bd 9d8a 62be
000002b0: 8f0d 0dbe 073a 4d3e df8a 313e acba 443d
000002c0: 38e4 953e 04d4 563e 5a68 76bd 16d9 fa3d
000002d0: 9ce5 143d 9f97 86bd 5aad 8dbe 41e5 f6bd
000002e0: 84cc 0cbe cff2 203d c880 d1be 2991 8bbe
000002f0: 734e 0cbe 2f5d 5ebe 228a 853e e959 353e
00000300: 5143 7c3e 6ba0 833c 12ed 53be 58b3 2f3e
00000310: c46d 453e 627e 863e ef1e 893d e5d0 77be
00000320: 9656 3c3e 4e80 3e3e 76c3 a0bc efcd 193e
00000330: 41e1 df3e 71f6 66be b481 873d b111 48be
00000340: 5369 f8bd 79b4 e63d 872b 4bbe f870 2abe
00000350: a540 843e 21c3 e9bd dbbf 273d b1f2 013e
00000360: 0393 eabc 7704 2c3e b069 8b3e 0600 fe3d
00000370: 416f 723e dc0c 8c3d e756 8d3d c93f f6bd
00000380: c779 8ebd 56cd 56be b9df 63be 851a a13d
00000390: 435b 3cbe 7b04 9a3e bf04 15be 5b0f 95be
000003a0: 52c8 a73d 2e02 9e3d 2648 7ebe 75bf 89bd
000003b0: 6939 913e c799 813e ed3b 0b3e 078b 0a3e
000003c0: 6d1b 66be bd71 99be b7a9 4b3e a18c 1bbe
000003d0: 89bf bf3d 9613 b1be 118c 4ebe 9a7b b6be
000003e0: 9f21 59be bd64 803e 625e 5cbe b91c a5be
000003f0: 6fb3 08bd 859e 1dbe 36ea 3ebd e815 063e

fc2.bias f4 [10]
0.032586887 0.22347899 0.046012912 -0.23796943 -0.1470549 -0.04478589 0.20436269 -0.15666993
-0.043377385 -0.14024064
00000000: d479 053d add7 643e 0978 3c3d 42ae 73be
00000010: 8f95 16be 6971 37bd 7444 513e 156e 20be
00000020: 7cac 31bd 3e9b 0fbe
